nn/models/blog_emb_low.pt (torch, 2667 bytes, 1 tensors)

weight f4 [29, 16]
1.0901576 -3.131238 0.9272876 1.2163843 0.5002093 2.4928029 -0.008332126 -0.8528697
0.11710452 0.10045599 -3.2912972 3.2424223 1.4481438 -2.0790858 -0.27680662 -0.62281847
-1.2478193 -1.966766 -1.9612548 -0.142778 -0.0951026 -0.10511747 -0.26097625 -0.9331289
-0.7429046 2.8323872 0.10505977 1.1520739 -0.26628485 -0.24772435 0.52776945 3.4698772
0.6321479 0.9981517 0.6959321 1.545726 1.7331829 -1.7375468 0.36259595 0.7486749
1.403274 -2.985572 -0.23119906 -0.16983816 -3.5745862 1.103597 0.028968126 2.4302716
-2.3624878 -0.75005794 0.64249665 3.1445677 1.01955 -1.8348247 -0.80753714 -0.11523784
1.7959523 1.0098853 -1.8333367 -1.1647172 -0.4118383 -1.2927731 1.1385657 -0.9577131
-0.1198611 -0.21608426 -2.7070282 -0.6541286 0.63323224 -0.11966854 1.8330283 -0.4980125
0.3152878 -2.4237263 1.9326235 0.980778 -0.625777 -0.6392896 -1.593445 -2.0458329
1.6985866 1.5775566 -0.14066754 -2.1847086 -0.3729535 -0.5890363 1.4831828 -0.48689926
-0.17128482 1.5916746 -1.6137267 -1.0898365 -0.88361186 1.0843256 -1.6004713 -0.82994455
1.0716873 0.8827479 -0.65237886 -0.47459233 -2.3394263 -0.9718343 -2.4919884 0.6946295
0.7909676 -2.5524428 1.551137 -1.5644462 1.1907574 -0.34087992 0.90128106 -0.42046943
2.2375264 -1.4205467 0.3959397 -0.8460687 3.310454 -2.3431492 -0.56516886 0.51812315
-1.1314888 -0.99203455 0.9117075 3.3887024 -0.86684734 0.8912351 0.13175781 -0.853005
1.3430648 -1.2929692 1.2847677 1.3642771 0.36137012 -0.23110573 2.7027342 1.0714561
-2.6557086 2.1786592 -0.054109678 -0.8044204 0.13509746 0.7528541 0.72495383 2.5195992
-0.55533624 -0.86076194 1.1844478 -0.86599755 0.4826953 0.37344486 -0.61892915 -2.2637029
-0.19411373 0.6030691 1.1021851 0.77682406 2.8955534 1.5324464 1.4117713 -1.6717997
1.9049462 -3.338941 -0.2999498 -0.26791114 1.4678321 -1.4000978 -1.1368743 2.537804
3.3994203 -0.38242716 0.99766386 -0.01048093 0.457295 -1.6350737 1.603766 3.7341633
-2.1560612 -2.0943055 -1.3140025 -0.6804134 0.08458552 1.1787331 -2.0535297 1.0241171
-0.74425083 -0.9197134 0.10955509 0.60770494 -3.6395845 -1.7973408 -1.6007714 -1.4610155
1.131917 1.3019536 -0.9880293 0.36852482 0.8184342 0.29907116 -2.863814 -1.7794108
1.2739561 0.47040123 1.9258517 0.653499 -2.0464158 -0.3551583 -1.3706915 -0.19051605
1.3813521 1.8157197 -1.3074231 0.18831228 -0.7304791 -0.94631946 1.1338812 0.70033926
-2.294272 -0.29695472 -0.21554641 0.3676315 -0.29941958 -2.8998857 2.0321236 1.0760055
-2.8157496 1.0638268 1.7058215 -1.9225141 1.3987696 1.2341889 -0.6984875 0.3636234
0.5849101 -1.5133432 -0.17337549 -0.42841497 0.21916208 -0.4891965 0.9109522 1.0652375
-0.12058002 -0.64626205 1.6989882 0.4006877 -1.3180075 -1.5682979 -0.222637 -0.73473114
-0.22480464 -0.11823588 0.46123904 -0.24748315 0.3660245 -0.726903 -2.59528 1.5909474
00000000: 498a 8b3f 3466 48c0 b862 6d3f 7bb2 9b3f
00000010: b70d 003f 158a 1f40 7883 08bc ab55 5abf
00000020: 7fd4 ef3d dfbb cd3d 9da4 52c0 d983 4f40
00000030: c75c b93f be0f 05c0 99b9 8dbe 0871 1fbf
00000040: 8bb8 9fbf fdbe fbbf 660a fbbf 6534 12be
00000050: 27c5 c2bd d447 d7bd ae9e 85be 89e1 6ebf
00000060: ff2e 3ebf d545 3540 9429 d73d 2877 933f
00000070: 7d56 88be 74ab 7dbe e61b 073f 7812 5e40
00000080: 72d4 213f df86 7f3f 9b28 323f 59da c53f
00000090: f0d8 dd3f ef67 debf 2da6 b93e 29a9 3f3f
000000a0: 7c9e b33f 9d13 3fc0 72bf 6cbe 0eea 2dbe
000000b0: 05c6 64c0 ab42 8d3f 904e ed3c 9289 1b40
000000c0: 0033 17c0 cc03 40bf a97a 243f 9940 4940
000000d0: 9d80 823f 89db eabf c1ba 4ebf d101 ecbd
000000e0: c4e1 e53f ec43 813f c7aa eabf 7415 95bf
000000f0: 78dc d2be 9779 a5bf 85bc 913f b02c 75bf
00000100: bd79 f5bd 3145 5dbe f33f 2dc0 f974 27bf
00000110: 821b 223f c814 f5bd aca0 ea3f 7ffb febe
00000120: 676d a13e 551e 1bc0 3560 f73f 4414 7b3f
00000130: ec32 20bf 7ca8 23bf 01f6 cbbf edee 02c0
00000140: 496b d93f 60ed c93f 270b 10be 44d2 0bc0
00000150: c3f3 bebe 15cb 16bf efd8 bd3f dc4a f9be
00000160: 4a65 2fbe febb cb3f 998e cebf c37f 8bbf
00000170: 6334 62bf 2ecb 8a3f 3edc ccbf 3f77 54bf
00000180: 0d2d 893f c4fb 613f 4d02 27bf c4fd f2be
00000190: 29b9 15c0 22ca 78bf bd7c 1fc0 3dd3 313f
000001a0: da7c 4a3f 395b 23c0 a88b c63f c63f c8bf
000001b0: bd6a 983f d087 aebe 5bba 663f c547 d7be
000001c0: a233 0f40 79d4 b5bf 9cb8 ca3e f597 58bf
000001d0: 7ade 5340 28f6 15c0 e8ae 10bf b8a3 043f
000001e0: a0d4 90bf faf5 7dbf aa65 693f 80e0 5840
000001f0: b5e9 5dbf fc27 643f 85eb 063e 895e 5abf
00000200: 8ce9 ab3f 0480 a5bf 4573 a43f a2a0 ae3f
00000210: 8105 b93e fba6 6cbe 99f9 2c40 7925 893f
00000220: 21f7 29c0 276f 0b40 1ca2 5dbd 7fee 4dbf
00000230: fd56 0a3e 0cbb 403f 9396 393f 1d41 2140
00000240: 842a 0ebf e55a 5cbf fc9b 973f 04b2 5dbf
00000250: d723 f73e 2a34 bf3e 2472 1ebf 82e0 10c0
00000260: c0c5 46be bd62 1a3f 6714 8d3f f1dd 463f
00000270: bf50 3940 3427 c43f ecb4 b43f 88fd d5bf
00000280: 47d5 f33f 36b1 55c0 0593 99be a62b 89be
00000290: ece1 bb3f 6836 b3bf 1985 91bf 616b 2240
000002a0: 1a90 5940 7ecd c3be e666 7f3f 35b8 2bbc
000002b0: 9222 ea3e 184a d1bf 3448 cd3f 88fc 6e40
000002c0: e8fc 09c0 1a09 06c0 3c31 a8bf 932f 2ebf
000002d0: 2c3b ad3d bae0 963f 086d 03c0 4516 833f
000002e0: 3987 3ebf 5672 6bbf 6b5e e03d 8d92 1b3f
000002f0: f4ee 68c0 430f e6bf 14e6 ccbf 8e02 bbbf
00000300: a8e2 903f 6aa6 a63f 7def 7cbf 49af bc3e
00000310: e784 513f db1f 993e bb48 37c0 bcc3 e3bf
00000320: fe10 a33f 6ed8 f03e 4f82 f63f b64b 273f
00000330: 7af8 02c0 4fd7 b5be d272 afbf a416 43be
00000340: 25d0 b03f 8169 e83f a459 a7bf efd4 403e
00000350: ae00 3bbf fe41 72bf 0523 913f 6f49 333f
00000360: 5ad5 12c0 730a 98be 33b8 5cbe 323a bc3e
00000370: 864d 99be ba97 39c0 500e 0240 8cba 893f
00000380: 3e35 34c0 7a2b 883f 5c58 da3f f114 f6bf
00000390: e20a b33f e7f9 9d3f 14d0 32bf d92c ba3e
000003a0: abbc 153f 3bb5 c1bf 5889 31be 3559 dbbe
000003b0: 066c 603e f777 fabe 2a34 693f b459 883f
000003c0: a8f2 f6bd 6e71 25bf 7278 d93f f026 cd3e
000003d0: 78b4 a8bf fcbd c8bf f4fa 63be 5717 3cbf
000003e0: 3033 66be a725 f2bd 8627 ec3e 396c 7dbe
000003f0: 9067 bb3e 5116 3abf 1119 26c0 2aa4 cb3f
