nn/models/blog_emb_all.pt (torch, 7339 bytes, 1 tensors)

weight f4 [102, 16]
00000000: 0652 aa3f b4c1 96c0 fcf5 913f 1ba9 3f3f
00000010: c59f 4a3f d0b8 1340 2728 23be e40d d6bf
00000020: 5a6e 8dbf 63fe f83e ef71 3ac0 e095 7b40
00000030: 9af4 f73f 95ea 07c0 6310 1abf 6df4 77bf
00000040: 2e7b 77c0 da67 93bf 1824 0a40 998f 10c0
00000050: 95fb ff3f 5dca f53f ab88 0ac0 0e22 b0bf
00000060: a91d 65bf 318f d83f f954 e43e 4364 45be
00000070: 43d9 173f f5af 67be fa6c 873f c3ba 7340
00000080: 79b4 3e40 97f1 98c0 1c93 4e3f 6be0 babf
00000090: f454 5940 5fd3 5bbe 185f 84bf 1445 0dc0
000000a0: 847c 5ec0 ed15 bcbf 62d6 ffbf a2fc 05be
000000b0: 0d5c 7f40 1b1e 2f3f a5b5 1c3f 8677 c03e
000000c0: f06a cc3c 3e11 13c0 fe01 bb3f 2c4b 8d3f
000000d0: 9e57 da3f 9558 09c0 72ed 233f cda9 0bc0
000000e0: 5755 73bf aaaf a4bf d9aa b1bf 20ef 00c0
000000f0: 377d 8b3e 7e8d 283f ed24 cd3e 496c bf3f
00000100: 8a13 1340 8720 44c0 4f2d b7be 8970 c6bf
00000110: 5e1b 1640 2582 c23f ca07 e4be b335 50c0
00000120: 43d8 c9be 89bb a1bf 99b6 8e3f 992e 5b40
00000130: cd8e 093f 2e90 e6bf 05fb 33c0 7b61 1cc0
00000140: a381 973f 6a32 ae3f 7bb6 3340 cc00 81bf
00000150: 71cd ec3f fbb5 e73f 32e7 c6bf d321 2bc0
00000160: bfd7 6d3e 2a73 babe ecb6 27bf ada9 31c0
00000170: f5f5 9040 32c8 a840 3657 233f eb57 373f
00000180: 0bda a4bf c376 373f 1e13 d8bd 311b b93f
00000190: 2a74 773e 736d 973f ca54 72bf dc94 57bf
000001a0: 2001 22bf dcf9 c93e c85e eabb 9949 35be
000001b0: ac1d 513e dc78 d73c e36d 8e3f b029 2fbf
000001c0: de62 3040 9e63 21c0 7fb0 a93e ce1f 5fbf
000001d0: 3a4b 0e40 e142 a33f 16c8 9d3e 6219 12c0
000001e0: c507 a4bf 244f 95bf c6fd 4d3e 2dae 5d40
000001f0: 8bb4 ae3e 0945 9cbf 0bf7 b5bf 44c1 06c0
00000200: 55cd fc3f baf4 a2bf 35a9 3b40 83bc e4be
00000210: f399 9bbf 5655 8dc0 6f4e 6d40 75d8 0040
00000220: d2af 85c0 b922 8540 a28f eabe b42f 3ac0
00000230: 9f1b 9cba a292 3d40 a85e 0f40 e43c d840
00000240: ac68 71bf d816 0bc0 36ee 6740 673c 983f
00000250: 5d32 b33f 5773 f93e 6d1d 67c0 5c79 5ac0
00000260: 58b5 4b3e 61b0 e3bf 6d7c e93f f41d 3fbf
00000270: 6b64 9740 b946 4240 f7cb bc3f e2bd 353f
00000280: e9ab 143e 4d0b 92c0 617f 193e e262 51bf
00000290: ab7e d23e 16f9 3d3f 316f 34c0 deb7 0a3d
000002a0: cc10 733f 9a51 a23f 377c edbe 14fd 3b3f
000002b0: dfdd 373f 23ae 953f 126b 743f b194 8b40
000002c0: b7b9 d2bf ae98 8bc0 c643 f6bf b489 0cc0
000002d0: 22f9 05c0 e805 e73e 17c6 f8bf 8b03 5d3e
000002e0: c823 0ac0 95bb 79be f29e bfbe d10f 49bf
000002f0: 5c22 bbbe 8cc5 c3be 6907 a9bf 025a e73f
00000300: a0e2 31bf 6314 8d3f 0ba1 513f f416 103f
00000310: 6acf d03f a5c2 e63e 86be 02c0 d555 88bf
00000320: 3fe4 fa3f e342 4dbd 2452 6940 a3e5 2ebf
00000330: bdb3 1440 4c40 3740 0c43 7dbf 3897 42bf
00000340: e4cd 0c40 ec1c 27bd 10c2 b23e 2796 02c0
00000350: 6871 e53f 7183 06c0 85c9 2940 b12f 43bf
00000360: b09f 5dbf 77fa 19bf 048e d1bf 5451 6fbf
00000370: 9e1f 363f f64c cfbf c159 86be c2fe 963f
00000380: f6fb 74c0 597d 7abf e052 0c40 e337 20c0
00000390: eea6 dc3f 817c 0240 7ce7 1ec0 0058 c8bf
000003a0: a6a7 59bf 4cb7 c53f 159c dd3e e348 cfbe
000003b0: f514 fa3e 29e0 1bbf 5d4a 8a3f 283e 6240
000003c0: e0d4 8740 a787 88c0 42f7 833f f81f cf3f
000003d0: 6ae7 0ac0 a0a1 4c3e 2513 21bf 8692 18c0
000003e0: 177b 51c0 387e 1f3d 5783 0bc0 930a 223f
000003f0: cbc3 5440 bca3 c7bf 6604 9bc0 c3a0 8c3e
1.3306282 -4.7111454 1.1403193 0.7486741 0.7915004 2.308155 -0.15933286 -1.6722989
-1.1049302 0.48631582 -2.913204 3.9310226 1.9371521 -2.1236928 -0.60181254 -0.9685734
-3.8668933 -1.1516068 2.158453 -2.2587645 1.9998652 1.9202381 -2.1645916 -1.3760393
-0.8949838 1.6918699 0.4459608 -0.19276528 0.5931589 -0.22625716 1.0580132 3.808274
2.9797652 -4.779491 0.8069322 -1.4599737 3.3958101 -0.2146735 -1.034152 -2.2073412
-3.4763498 -1.4694191 -1.99873 -0.13084653 3.9899933 0.6840531 0.6121467 0.3759119
0.024953336 -2.2979274 1.4609983 1.1038566 1.7057989 -2.1460316 0.6403419 -2.1822388
-0.95052093 -1.2866108 -1.3880264 -2.014595 0.2724397 0.658409 0.40067235 1.4954921
2.2980676 -3.0644853 -0.35776755 -1.5503093 2.3454204 1.5195967 -0.44537193 -3.2532775
-0.39422807 -1.2635356 1.1149474 3.424719 0.5373352 -1.801275 -2.812196 -2.4434497
1.1836437 1.3609135 2.8080127 -1.0078368 1.8500196 1.8102411 -1.5539305 -2.6739395
0.23226832 -0.36415988 -0.6551349 -2.7759812 4.530024 5.274438 0.6380495 0.7161853
-1.2879041 0.7166559 -0.10550521 1.4461423 0.24165407 1.1830276 -0.9466063 -0.84211516
-0.63282967 0.3944844 -0.007152412 -0.17703857 0.20421475 0.026302747 1.1127285 -0.68422985
2.7560344 -2.5217052 0.33142468 -0.87157905 2.2233415 1.2754785 0.30816716 -2.2827992
-1.2814871 -1.1664777 0.20116338 3.4637558 0.34122118 -1.2208568 -1.4216017 -2.105546
1.9750162 -1.2730935 2.9322026 -0.44675073 -1.2156357 -4.416667 3.7079122 2.0132115
-4.1777124 4.1604886 -0.45812708 -2.9091616 -0.0011910087 2.9620748 2.2401524 6.757433
-0.9430034 -2.1732693 3.6239142 1.1893433 1.3999745 0.4872081 -3.611171 -3.4136572
0.19893396 -1.7788202 1.8241097 -0.7465508 4.731008 3.0355666 1.4749745 0.70992863
0.14518704 -4.5638795 0.14989997 -0.8179151 0.41112265 0.742082 -2.8192866 0.033866756
0.94947505 1.2681153 -0.4638383 0.7343304 0.71822923 1.1693767 0.95475876 4.361901
-1.6462926 -4.3623877 -1.9239433 -2.1959047 -2.0933309 0.45121694 -1.9435452 0.21583383
-2.158434 -0.24387963 -0.37425953 -0.7853976 -0.36549652 -0.38236654 -1.3205386 1.8074343
-0.6948643 1.1021847 0.8188636 0.56285024 1.6313298 0.45070377 -2.0428786 -1.0651194
1.9600905 -0.050112616 3.6456385 -0.6831915 2.3234704 2.8632994 -0.9893043 -0.7601199
2.2000666 -0.040799066 0.34913683 -2.0404146 1.7925234 -2.1017725 2.6529248 -0.76244646
-0.8657179 -0.60147804 -1.6371465 -0.9348347 0.71141994 -1.6195362 -0.26240352 1.1796496
-3.8278785 -0.97847515 2.1925583 -2.503411 1.7238443 2.038849 -2.4828787 -1.5651855
-0.85021436 1.5446563 0.43283144 -0.40485296 0.48844114 -0.60888916 1.0803944 3.5350437
4.2447357 -4.266559 1.0309832 1.6181631 -2.1703744 0.1998353 -0.6291984 -2.383943
-3.2731378 0.03893873 -2.1798913 0.63297385 3.3244503 -1.5596843 -4.844287 0.274664
