nn/models/blog_linear_low.pt (torch, 30759 bytes, 2 tensors)

weight f4 [29, 256]
0.24914144 -0.08729478 0.0317201 -0.03649425 -0.2341697 -0.4188205 -0.036816336 -0.054070346
-0.16254929 -0.11066436 -0.15982015 -0.1190709 -0.09994685 0.02345111 0.020621553 0.034595348
-0.06530237 -0.50840634 -0.15907054 -0.24963461 0.3629649 -0.14529563 -0.06277511 -0.09432408
-0.17373721 0.112470455 -0.13766344 -0.12922126 -0.059462365 0.22153898 -0.11175366 -0.02288656
-0.15434086 0.15116401 0.093752064 0.057681687 -0.27970773 -0.07291443 -0.016060634 -0.046798807
0.13688046 0.09816842 -0.16979669 0.05594663 -0.10594901 0.11274091 -0.35249898 0.040964343
0.260034 0.554136 0.093597695 0.12775862 -0.12714984 0.027426086 -0.05211943 0.23186
-0.03179181 -0.1367449 -0.12685683 -0.028353803 0.24124682 -0.069394186 -0.0251225 0.032732066
0.094511785 0.08607071 -0.12425166 -0.08253003 -0.14929487 -0.0004751661 -0.17086715 -0.14019924
-0.19372079 -0.19358395 0.16691363 0.07929478 -0.050136853 0.080018006 0.16231795 0.32581007
0.10632083 -0.07745996 1.0076622 0.5276832 0.13759 0.06246877 0.22639257 -0.40825397
-0.24784218 0.038817205 0.07587713 0.22794597 -0.18021718 0.070424214 0.29639745 -0.2417189
-0.058321103 0.2416282 0.043755755 -0.28746375 -0.17910169 -0.32283446 0.3313819 -0.18629888
-0.20108753 -0.0046055815 -0.05555247 0.02281159 0.12915109 0.8296503 -0.096383035 -0.0889821
-0.058812115 0.019817637 0.12281122 -0.023283362 0.070477255 0.04171551 -0.031416368 0.045004055
0.03078377 0.051307764 0.20018335 0.08723449 -0.006947408 0.14343916 -0.08978623 0.065632
-0.14867535 0.11755884 -0.046028093 -0.03185165 0.50251263 -0.0043973043 0.15504804 -0.16292468
-0.0062251617 0.088991225 -0.057765186 -0.15813999 0.078817084 -0.09988551 0.15196528 0.12507899
-0.046742365 0.14199233 -0.00060481677 0.118019864 -0.10633964 -0.13125597 0.6859652 -0.04933397
0.2961691 -0.17957644 0.044618912 0.58624494 -0.07570761 -0.14561021 0.09130579 0.1367254
-0.095821954 0.025940102 -0.15225801 -0.095342256 0.28110093 0.062169198 0.04133109 0.05827124
0.12399039 -0.042970575 -0.25348315 0.0067044008 -0.08671771 0.06795411 -0.09125261 0.2778176
-0.05892118 0.05939672 -0.5921282 0.069254465 0.016221734 0.1439382 0.14725271 0.121914335
-0.097732596 0.24593413 0.21754071 0.054675475 -0.2351371 0.21276617 -0.05091487 0.043084104
-0.3210977 0.09229765 0.30876708 -0.09783568 0.28338313 0.20132278 0.25862747 0.19087067
-0.033183873 -0.26659685 0.2617217 -0.00053245324 0.010169444 -0.20295565 -0.36622608 0.06533754
0.09810608 0.25388902 -0.1398158 0.2920134 -0.0954985 -0.04382872 0.18973441 -0.00788204
-0.020625865 -0.27121812 -0.13880461 -0.069707155 -0.20435005 0.0088186925 -0.001640609 0.022660151
0.19437753 -0.35763022 -0.33958936 0.14244498 0.34294584 -0.07589236 -0.00067963393 0.3285329
0.14111318 -0.020042473 -0.1259592 0.12909551 -0.4659138 -0.045313347 -0.035069432 0.039711393
-0.2569651 -0.0035533302 -0.047295325 0.06544584 0.049212314 -0.09202675 0.22829154 0.06263826
-0.11845023 0.08442602 -0.29753742 -0.027892344 0.23431204 0.22590381 -0.28174198 0.60579383
00000000: ef1e 7f3e 9bc7 b2bd f0ec 013d ff7a 15bd
00000010: 2fca 6fbe a46f d6be bacc 16bd de78 5dbd
00000020: 5273 26be ffa3 e2bd e5a7 23be 72db f3bd
00000030: efb0 ccbd 8b1c c03c 88ee a83c dab3 0d3d
00000040: 40bd 85bd eb26 02bf 63e3 22be 37a0 7fbe
00000050: 89d6 b93e 61c8 14be 3d90 80bd fc2c c1bd
00000060: 2be8 31be e956 e63d a5f7 0cbe 9452 04be
00000070: cf8e 73bd 1ddb 623e 1adf e4bd 987c bbbc
00000080: 880b 1ebe bdca 1a3e 1501 c03d a243 6c3d
00000090: da35 8fbe 2954 95bd 9791 83bc 1bb0 3fbd
000000a0: 642a 0c3e 860c c93d 2fdf 2dbe 4b28 653d
000000b0: cbfb d8bd b5e4 e63d bf7a b4be 3aca 273d
000000c0: 2d23 853e dbdb 0d3f 26b0 bf3d 28d3 023e
000000d0: 9133 02be acac e03c 2f7b 55bd b56c 6d3e
000000e0: 2138 02bd db06 0cbe c2e6 01be 3c46 e8bc
000000f0: 6809 773e 8a1e 8ebd b3cd cdbc 0f12 063d
00000100: 658f c13d d745 b03d a877 febd 8105 a9bd
00000110: c1e0 18be b71f f9b9 ccf7 2ebe 6490 0fbe
00000120: be5e 46be df3a 46be 68eb 2a3e 4d65 a23d
00000130: 4d5c 4dbd 7be0 a33d ad36 263e 94d0 a63e
00000140: bcbe d93d 54a3 9ebd 13fb 803f 3f16 073f
00000150: 65e4 0c3e 41df 7f3d 74d3 673e aa06 d1be
00000160: 57ca 7dbe cafe 1e3d 7865 9b3d ab6a 693e
00000170: da8a 38be 923a 903d 68c1 973e 2985 77be
00000180: 1ce2 6ebd 626d 773e 3c39 333d 732e 93be
00000190: 6f66 37be 8f4a a5be e3aa a93e 22c5 3ebe
000001a0: e4e9 4dbe 6bea 96bb fd8a 63bd 5fdf ba3c
000001b0: 2f40 043e f663 543f 7864 c5bd 3f3c b6bd
000001c0: f9e4 70bd 9958 a23c 7384 fb3d c0bc bebc
000001d0: 6156 903d e2dd 2a3d 73ae 00bd 2c56 383d
000001e0: 3f2e fc3c 1728 523d ddfc 4c3e ffa7 b23d
000001f0: 15a7 e3bb b7e1 123e d8e1 b7bd 126a 863d
00000200: 5a3e 18be b0c2 f03d f487 3cbd e076 02bd
00000210: aba4 003f 4317 90bb eac4 1e3e bad5 26be
00000220: 71fc cbbb 0841 b63d 309b 6cbd 73ef 21be
00000230: da6a a13d c690 ccbd c99c 1b3e b514 003e
00000240: ec74 3fbd 7066 113e 918c 1eba 66b4 f13d
00000250: 99c8 d9bd f767 06be 6a9b 2f3f 6b12 4abd
00000260: 7aa3 973e e3e2 37be 52c2 363d 2614 163f
00000270: 970c 9bbd d81a 15be 88fe ba3d be01 0c3e
00000280: 4d3e c4bd 5680 d43c 86e9 1bbe cd42 c3bd
00000290: 76ec 8f3e 21a5 7e3d ca4a 293d d3ad 6e3d
000002a0: acee fd3d ea01 30bd 8bc8 81be 97b0 db3b
000002b0: 0e99 b1bd 862b 8b3d a6e2 babd 1c3e 8e3e
000002c0: 5657 71bd fa49 733d b795 17bf 49d5 8d3d
000002d0: 71e3 843c 8964 133e 6ac9 163e 39ae f93d
000002e0: 0728 c8bd 28d6 7b3e fec2 5e3e 64f3 5f3d
000002f0: c8c7 70be 60df 593e 1c8c 50bd f578 303d
00000300: eb66 a4be 8d06 bd3d b816 9e3e 135e c8bd
00000310: 9817 913e 8f27 4e3e d26a 843e 9a73 433e
00000320: d0eb 07bd 627f 88be 6300 863e 5594 0bba
00000330: bd9d 263c 9bd3 4fbe fc81 bbbe b0cf 853d
00000340: d7eb c83d befd 813e e02b 0fbe c882 953e
00000350: b894 c3bd be85 33bd bd49 423e ac23 01bc
00000360: 93f7 a8bc 1add 8abe cc22 0ebe a0c2 8ebd
00000370: 2441 51be 477c 103c b409 d7ba c8a1 b93c
00000380: e70a 473e 4f1b b7be a8de adbe 19dd 113e
00000390: 9996 af3e 746d 9bbd 7629 32ba 7735 a83e
000003a0: f97f 103e 1d30 a4bc 73fb 00be 9d31 043e
000003b0: 418c eebe 7d9a 39bd f7a4 0fbd 6aa8 223d
000003c0: ee90 83be fdde 68bb beb8 41bd 7808 863d
000003d0: da92 493d 8578 bcbd 42c5 693e 7d48 803d
000003e0: 0996 f2bd 8de7 ac3d d356 98be 7c7e e4bc
000003f0: 7fef 6f3e 5453 673e 7c40 90be 4e15 1b3f

bias f4 [29]
0.20717199 0.15210876 0.073133476 -0.17792934 -0.17658761 -0.05793104 0.06662188 0.086314134
0.11475913 0.07472842 -0.3140527 -0.05549331 0.010879116 0.15509857 -0.09314506 0.028418008
0.031692263 -0.38666812 -0.14066397 0.010546184 0.10258087 -0.16361405 0.1465611 -0.19793017
-0.1996728 0.028308362 -0.111817256 -0.31356198 -0.54203224
00000000: e524 543e 66c2 1b3e 01c7 953d 1c33 36be
00000010: 62d3 34be 1949 6dbd 0d71 883d 77c5 b03d
00000020: d606 eb3d 370b 993d 84cb a0be f44c 63bd
00000030: 523e 323c 29d2 1e3e d6c2 bebd e2cc e83c
00000040: bfcf 013d 5df9 c5be 370a 10be e7c9 2c3c
00000050: eb15 d23d 718a 27be 1d14 163e 35ae 4abe
00000060: 0777 4cbe f0e6 e73c 7200 e5bd 328b a0be
00000070: a0c2 0abf
