nn/models/blog_linear_all.pt (torch, 105831 bytes, 2 tensors)

weight f4 [102, 256]
00000000: a274 f4bd 911d 8fbf 5b1b 39be 1482 cfbc
00000010: 926a c2be f15f 193d f8bc 05bf 2809 05bf
00000020: f6f3 213e 8274 2c3f 4812 57be 21d6 883e
00000030: 78e5 9dbe 0b2e a4be 39a8 b13d b542 b43b
00000040: c34f 633e dd7b 113d f617 75be 8b43 c73e
00000050: 2207 c83d ab61 e23d 44c9 e4bd 37ed d9bd
00000060: 3d93 ac3e d092 53be 3def d23d f9ed 2a3d
00000070: 84a7 4abd 4aed 5e3e 3048 023e 5013 893e
00000080: efc0 11bd 2e75 d1be 1359 8b3b 4008 f73d
00000090: 9e15 6ebd 397c da3d 3b4f 9d3e 48d9 813d
000000a0: 209e 9b3c c28e 923e 8741 01bd e2d1 7e3e
000000b0: 151c 873c e0e4 533e fd7b 8abe 9c65 613e
000000c0: 67ac 853e 38ee 96bc 5f4a d53e ca1e a4bd
000000d0: 1171 6bbe 4fa9 d5be f684 54be 936d c13c
000000e0: c528 b33d a131 aabd 2295 4abe dfc5 00be
000000f0: 9d4d 8a3d 0e84 4dbe cc4a 393e 611f 603e
00000100: 868b cebe a595 9cbe 1ca3 32be 37fb 0ebe
00000110: 429b 45be 9c52 adbd 1ea2 773e 41e2 b1bd
00000120: ebbd 793d e0c3 793e 6b09 0a3e f5f8 c53d
00000130: b72e debd db9e e83d bd19 313e 9457 263e
00000140: a194 ac3d 17c5 95bf c277 263f cbb4 fc3d
00000150: c02f d93d e8a3 c3bd 2e53 e43e 4e48 77bd
00000160: e3a8 dbbd 72e2 e1be 3967 243d 3d89 a1bd
00000170: e860 82bf 5728 c73e 9358 56be e304 f9be
00000180: aaf8 17bd 3f80 0cbf ddf1 973f 7d6e 56bf
00000190: 7fcc 16be 1282 06be 8fd1 ee3d 67a1 68be
000001a0: ca0b 17be 6820 23be 5329 aabd 25ef 6bbe
000001b0: 08ee 9fbb 01d0 7b3d cfb7 2c3e 49bd 993d
000001c0: 3842 c33e e67e 183c 9311 833d 0516 863e
000001d0: 3b51 003e 5ae3 06be a6f2 133f afac bbbd
000001e0: e4fd c1be 7477 a3bd 2b25 673b 7bea 90bd
000001f0: 5580 f5bd ca52 743e 8c68 9cbe a5a8 e43d
00000200: e741 03be 954a ee3d d0e2 97bd 4ab3 8ebe
00000210: 7f93 8dbd 7503 703d fcf7 483e b007 813d
00000220: 1b11 2e3e fd9f e8be c2ab de3e 71c4 5d3c
00000230: 91d9 11be 7b28 93be 8e7b d4bd c8f7 543f
00000240: 5c02 e5bd 7b18 aa3e fc41 bdbd 1322 663e
00000250: 0217 363e 9b30 8e3d dc62 6ebc 8ecd 5bbe
00000260: d88a fabd d722 26be 100f 49bd 82ab 15be
00000270: 490a 7c3e 17b2 8d3e 5d68 003d 500e 433d
00000280: 0962 273d 509b 943e 31ff 53bc 3fa3 213e
00000290: 6849 023f e332 5fbd abaf ea3e 52c4 713d
000002a0: df45 423d 1b00 59be 5a43 70bc 28d8 813d
000002b0: 5bb6 d3bd 2d86 ae3e 4f72 803d d4c6 a63e
000002c0: 75fb c9bb 189b 913d b273 383e 78ea 243d
000002d0: 52a0 753e b819 1abe 908b f63d a55f d3bd
000002e0: 9420 c8bc f441 acbd 9101 00bf 535d 9d3e
000002f0: 54f2 b7bd 7667 5cbe cc8b 1dbf f59a f73e
00000300: a6d1 673e e5c8 82be d94e 50be 6e77 cb3d
00000310: 6bf0 63be 3ab7 f5be ea79 41be 30d5 cbbe
00000320: db69 c73d a933 663e c0fa 30bf dcaa 413e
00000330: d079 b33e 3db9 8fbe 4481 2abe b85e 36be
00000340: a75b 523e 0e90 3d3e 3132 9a3e 461f 033f
00000350: 6c6c 28be 8fc2 953e b031 2abe af00 b73e
00000360: f214 3fbe 09fe a3bc d975 983d 4067 e83e
00000370: a60f 5fbe 0504 58be 7474 adbd 29fb dd3d
00000380: 6650 1b3e c402 ae3d 2ed4 a03e 9e5c 6d3d
00000390: 5208 dbbd 00e1 51bf 3051 133c 17a8 813e
000003a0: 9a5a b73c 2dc8 9b3d 1a30 883d 6224 d7bd
000003b0: 40b9 583e bab6 163d c26d 013e 6f07 d63e
000003c0: e79f a43e 8702 953c 2641 8ebd 5aa2 503c
000003d0: 7335 2abe 4546 39bf 8953 303e 9655 343e
000003e0: fc77 7bbe ba35 3e3e 6065 ebbd 607d 823e
000003f0: 2e5a 69be 061d af3e 8274 d9be c2c4 25bd
-0.119363084 -1.1180898 -0.18076842 -0.02533058 -0.37971932 0.037445012 -0.5224147 -0.51967096
0.1581572 0.67365277 -0.21003067 0.26725867 -0.30839133 -0.32066378 0.08674664 0.005501116
0.22198395 0.035518516 -0.23934922 0.3891872 0.097669855 0.11053785 -0.11171201 -0.10640948
0.33706084 -0.20661473 0.10299537 0.041730855 -0.04947616 0.21770206 0.1272285 0.26772547
-0.035584386 -0.40909714 0.004252562 0.120621204 -0.058126085 0.10668225 0.3072451 0.06340271
0.018996298 0.2862454 -0.031556632 0.24884751 0.016492883 0.20692778 -0.2704772 0.22011417
0.26108095 -0.018424138 0.41658303 -0.08013685 -0.2299235 -0.41730735 -0.20753846 0.02361182
0.087480105 -0.08310247 -0.19783452 -0.12575482 0.06753085 -0.20069906 0.18094939 0.2188697
-0.40340823 -0.3058292 -0.17445034 -0.13963018 -0.19297507 -0.08463022 0.24182937 -0.08685733
0.060972136 0.24391127 0.13480155 0.096666254 -0.10848754 0.11358424 0.17294975 0.16244346
0.08426786 -1.1700772 0.65026486 0.12339171 0.10604811 -0.09552747 0.4459471 -0.06037169
-0.10725572 -0.44118077 0.040137503 -0.07887504 -1.0185823 0.38897964 -0.20932226 -0.4863654
-0.03710238 -0.5488319 1.1870686 -0.8376234 -0.14726447 -0.13135555 0.11661064 -0.2271782
-0.14750591 -0.15930331 -0.08308663 -0.23040445 -0.0048806705 0.061477665 0.16866992 0.075068064
0.38136458 0.009307599 0.063998364 0.26188675 0.12530987 -0.13172665 0.5779213 -0.09163796
-0.37889016 -0.07981768 0.0035269957 -0.070759736 -0.11987368 0.23859707 -0.30548513 0.11164979
-0.12818108 0.11635319 -0.07416308 -0.27871162 -0.06912898 0.058597047 0.19625849 0.063002944
0.16998713 -0.4543456 0.43490416 0.013535605 -0.14243151 -0.28741822 -0.10375129 0.83190584
-0.11182091 0.33221802 -0.09241101 0.22473936 0.17782214 0.069428645 -0.014549937 -0.21465132
-0.122335136 -0.16224228 -0.04908663 -0.14616206 0.24613298 0.27674934 0.03134953 0.04762107
0.040864978 0.29024744 -0.01293926 0.1578493 0.5089326 -0.05449189 0.4583715 0.059025116
0.047429916 -0.21191446 -0.014664495 0.06340057 -0.10337516 0.34086743 0.06271803 0.3257357
-0.006164009 0.0710966 0.18012884 0.04026267 0.23986939 -0.15048873 0.12038338 -0.10320977
-0.024429597 -0.08411017 -0.5000239 0.30735263 -0.08981767 -0.21523842 -0.6154144 0.4836041
0.22638568 -0.25543895 -0.20342578 0.09934889 -0.22259681 -0.47991353 -0.18894163 -0.39811087
0.09736987 0.22480644 -0.69132614 0.18912834 0.35053873 -0.28071013 -0.16650873 -0.1780957
0.20542775 0.18511984 0.30116418 0.51219594 -0.1644761 0.2925 -0.16620517 0.3574271
-0.18660334 -0.020018594 0.07444353 0.45391273 -0.21783313 -0.21095283 -0.08469477 0.108389206
0.15167388 0.08496621 0.3141188 0.057949655 -0.10694946 -0.8198395 0.008991525 0.25323555
0.02238207 0.0760654 0.066498 -0.10504986 0.21164417 0.036795355 0.12639526 0.41802546
0.32153246 0.018189682 -0.0694602 0.01273402 -0.16621952 -0.7237285 0.17219366 0.17610773
-0.24557489 0.18575183 -0.11493945 0.2548628 -0.22788307 0.3420183 -0.424717 -0.040470846

bias f4 [102]
00000000: ad26 873e 78ac cabd d5b9 51be 70ad 86bd
00000010: dec8 03be 3682 0dbf 66c6 b4be e124 02bd
00000020: 28a0 90be f2aa acbe bf22 19be 3361 f6bd
00000030: fb00 dfbd a1e2 24be 91e7 d7bc 13b3 4fbe
00000040: 9692 983e 75f2 763d 9b4c 05be 71b9 05be
00000050: 908b f7bd 3c17 6d3e 1ebb 30be 6af0 b9bc
00000060: 2864 a7be f351 1fbe 33fd 6e3b f419 c2bd
00000070: 61a4 c6be 3fea 09be ddfa bfbd d3eb 40be
00000080: 22a1 83bd c6bf 7fbe 4260 98bd 2994 cebd
00000090: 5cc9 ffbd d813 a7bd 95f0 94bd 64f0 c7bb
000000a0: aede b83d 9832 913c 69ad a33d 6025 3f3c
000000b0: f904 a5bd 4a03 bcbc 0656 323c 8265 0c3e
000000c0: 0d6b 72bd 2d89 e83c 334e 22bb 7195 e23d
000000d0: b772 a13d 0656 a4bd ce2c 313d 786f 64bd
000000e0: 4bc9 7abe 0c87 33bc 95aa 1d3d 9b9f 3fbc
000000f0: 1f4d 373e 1862 a53d aa30 e03b 905f 4abd
00000100: 4451 99bd 8a6d b9bc 1f59 593b 9d92 50bc
00000110: c1f7 a2b8 203a a73d f22a eebd df58 d9bc
00000120: 7d21 95bd d3b0 133e 5ea8 133e 61ab f8bd
00000130: 7126 33bd 181e 22be ad4b 543d 3515 76bd
00000140: 0870 24be 12dd 063d 9436 d9bd 035e f9bd
00000150: 9405 ef3d 32dd 063d 8add 18be 8d7f 2bbe
00000160: b215 bd3b 7314 38be b090 0fbd e6b1 14bd
00000170: 0f4b 6c3d 522d c93d 2a28 b7bc 632f 06bd
00000180: 2e20 d4bd 28ef debd a5f4 bfbd 86d1 6a3b
00000190: 0794 1cbc 264a 763d
0.26396695 -0.09896177 -0.20481046 -0.06576049 -0.12869594 -0.5527681 -0.35307616 -0.03177345
-0.2824719 -0.3372417 -0.14954661 -0.12030258 -0.10888859 -0.16102077 -0.026355537 -0.20283155
0.29799336 0.06028982 -0.13017504 -0.13059022 -0.12087166 0.23153394 -0.1725888 -0.022697646
-0.326936 -0.15558605 0.0036466836 -0.094776064 -0.38797286 -0.13468264 -0.0937402 -0.1883996
-0.06427218 -0.249755 -0.07440235 -0.10086853 -0.12489578 -0.08158082 -0.0727245 -0.006101655
0.09026848 0.01772432 0.0799206 0.011666626 -0.08057589 -0.022950787 0.010884767 0.13710597
-0.059184123 0.028385723 -0.0024765849 0.1106366 0.07883208 -0.0802422 0.04325562 -0.055770367
-0.2449085 -0.010957491 0.038492758 -0.011695768 0.17900513 0.080753505 0.0068417387 -0.04940754
-0.07486203 -0.02263524 0.0033164693 -0.012730268 -7.77091e-05 0.08165383 -0.11629285 -0.026531635
-0.07281778 0.14422922 0.14419696 -0.12142063 -0.043737832 -0.15831792 0.051829983 -0.06007882
-0.16058362 0.032925673 -0.10606113 -0.121761344 0.11670986 0.032925792 -0.1492826 -0.16747876
0.0057704085 -0.17976551 -0.035050094 -0.03630247 0.05768877 0.09823097 -0.022358019 -0.032760035
-0.103577 -0.10885459 -0.09372834 0.0035830452 -0.009556777 0.060129307
