nn/models/linear_all.pt (torch, 105831 bytes, 2 tensors)

weight f4 [102, 256]
0	0xbd2ec729	-0.042670403
1	0xbe6e89d2	-0.23294762
2	0x3f82606d	1.0185677
3	0x3e974abc	0.29549205
4	0xbdf9177a	-0.12162681
5	0xbe26c7f4	-0.16287214
6	0xbeb0ffed	-0.34570256
7	0xbee17586	-0.44034976
8	0xbe96179f	-0.29314896
9	0x3e056816	0.13027987
10	0xbe9de314	-0.3083731
11	0x3e1723ee	0.147598
12	0xbf0148b5	-0.5050157
13	0xbf6144aa	-0.879954
14	0x3ddaa6d3	0.106763504
15	0x3d94f78a	0.07273777
16	0x3e0e52b6	0.13898739
17	0x3e1b85ec	0.15187806
18	0xbe6a96a0	-0.22909021
19	0x3ec1654c	0.37772596
20	0xbd4e0421	-0.050296906
21	0x3e2ee509	0.17079557
22	0x3ddb5459	0.107094474
23	0xbdcc25d5	-0.099681534
24	0xbddb737e	-0.10715388
25	0xbf084582	-0.5323106
26	0x3e9fec11	0.31234792
27	0xbf042535	-0.51619273
28	0xbe82c583	-0.25541314
29	0x3e21ab4d	0.15788002
30	0xbcb9814d	-0.022644663
31	0xbe8c61be	-0.2741832
32	0x3e124f0c	0.14287966
33	0xbbfba134	-0.007679129
34	0xbe9d2ef8	-0.30699897
35	0xbe531c33	-0.20616226
36	0xbcc56748	-0.0240971
37	0xbc654903	-0.013994458
38	0xbe21cea3	-0.15801482
39	0x3f590e10	0.8478708
40	0x3dfc9f5d	0.12335084
41	0xbe0cdfa2	-0.13757184
42	0x3ed0caa4	0.40779603
43	0x3e8f68b0	0.28009558
44	0x3ea104ad	0.3144888
45	0x3e698d8a	0.22807899
46	0xbe08563f	-0.1331415
47	0x3e8891c0	0.26673698
48	0x3e7dd0c2	0.24786666
49	0xbdcccb6d	-0.09999738
50	0x3e2c7d3b	0.16844647
51	0xbe8fe3d0	-0.28103495
52	0xbf08cebd	-0.5344046
53	0xbdf87141	-0.121309765
54	0x3e8e2644	0.2776357
55	0xbe72a364	-0.23695141
56	0x3f1978cd	0.5994995
57	0x3e530f29	0.20611252
58	0xbec26042	-0.37964064
59	0x3e65c89c	0.22439808
60	0x3eba15d9	0.36344793
61	0xbe46e44b	-0.19423024
62	0x3d0a64ac	0.033787414
63	0x3eabb1bf	0.33534047
64	0xbeca8d05	-0.39560714
65	0xbed7972d	-0.42107525
66	0xbc43f659	-0.011960589
67	0xbe888938	-0.2666719
68	0xbdfdfe7e	-0.12402056
69	0xbf0c7d68	-0.54878855
70	0xbe4f7ad4	-0.20261699
71	0xbe3cfa30	-0.18454814
72	0x3d00176a	0.03127233
73	0x3e29b67b	0.16573517
74	0x3c707e68	0.014678575
75	0x3d4d7cd5	0.050167877
76	0xbe33387d	-0.17502017
77	0x3d4fcfff	0.05073547
78	0xbe65da1a	-0.2244648
79	0xbeac7196	-0.3368041
80	0xbd2b169c	-0.04176961
81	0xbfca0db9	-1.5785438
82	0x3ec119ef	0.37715098
83	0x3e4968b5	0.19668849
84	0x3e21ab7f	0.15788077
85	0x3f033c19	0.51263577
86	0x3ebc881b	0.3682259
87	0x3db3afcc	0.08773765
88	0xbf0892dd	-0.53349096
89	0xbeff8802	-0.49908453
90	0x3c483590	0.012219802
91	0xbe1ccbf0	-0.15312171
92	0xbe3c21e2	-0.183723
93	0x3e82c82e	0.2554335
94	0xbef469dc	-0.47737014
95	0xbe95413b	-0.2915133
96	0x3d05a9a1	0.032632474
97	0xbed67174	-0.41883433
98	0x3ef192b2	0.47182232
99	0xbf52b873	-0.823127
100	0xbec4adce	-0.38413852
101	0xbbe32de0	-0.006932959
102	0xbe821330	-0.25405264
103	0xbe00a248	-0.12561905
104	0xbef059ac	-0.46943414
105	0x3da81eb0	0.08208978
106	0xbc27888c	-0.010225426
107	0xbeab4788	-0.33453012
108	0xbec7ccda	-0.39023477
109	0x3ea53b63	0.3227187
110	0x3e7a3cd5	0.24437268
111	0x3ecdfee4	0.4023353
112	0x3eb5630b	0.35427126
113	0xbe52d16b	-0.20587699
114	0xbc966968	-0.018360808
115	0x3e65bb06	0.22434625
116	0xbde7ba40	-0.11314821
117	0xbd8ade05	-0.06780628
118	0x3e97cf5f	0.296504
119	0xbddee51d	-0.10883544
120	0xbf10f638	-0.566257
121	0xbf83fbfd	-1.0311276
122	0x3d8afad8	0.06786126
123	0xbe9585f9	-0.29203776
124	0x3e62ab3e	0.22135636
125	0x3e8e58d8	0.27802157
126	0xbe9cedb7	-0.30650112
127	0x3ddbe7b9	0.10737557
128	0x3f16b357	0.588674
129	0xbc529865	-0.0128537165
130	0x3d4733cf	0.048633393
131	0xbf5328a4	-0.8248389
132	0xbe91fa92	-0.28511482
133	0xbf1d9c49	-0.615666
134	0x3e7b0292	0.24512699
135	0x3c589407	0.013218886
136	0x3eeb5e94	0.45970595
137	0xbee952bc	-0.45570934
138	0x3e3bc83a	0.18338099
139	0x3e0a7122	0.13519719
140	0xbe2c4d51	-0.16826369
141	0xbedbe830	-0.42950583
142	0xbe508d96	-0.20366511
143	0x3ed1a680	0.40947342
144	0xbe80d75e	-0.25164312
145	0x3eec5bb8	0.46163726
146	0x3e4d0253	0.20020418
147	0x3ebda454	0.37039435
148	0x3df79e1e	0.12090705
149	0xbe9adb5d	-0.30245486
150	0x3e7784b6	0.24171719
151	0xbe864297	-0.2622268
152	0xbd15a2ad	-0.036532093
153	0xbe6091f9	-0.21930684
154	0x3bc3df4f	0.005977548
155	0x3d5170f2	0.051133104
156	0x3ddd779e	0.10813831
157	0xbc5c83ae	-0.013459129
158	0x3c2d2cf0	0.010569796
159	0xbe78e697	-0.24306713
160	0xbdc6a3a4	-0.09699181
161	0x3e82b333	0.25527343
162	0x3e991c98	0.29904628
163	0xbf458748	-0.7715955
164	0x3e8a0fee	0.26965278
165	0xbe1c1220	-0.15241289
166	0x3e869165	0.26282802
167	0x3cf119c9	0.02943124
168	0x3dc29f1f	0.09503006
169	0xbedbadb7	-0.4290597
170	0xbf05edee	-0.52316177
171	0xbf2dd431	-0.67901903
172	0x3da960ae	0.08270393
173	0x3e1b7c9e	0.15184256
174	0x3e0bcb77	0.13651834
175	0x3ecde781	0.40215686
176	0xbe80fddf	-0.25193688
177	0xbe91cd68	-0.28477025
178	0x3eae6e58	0.3406856
179	0xbe5b87c7	-0.21438514
180	0x3f32d3f8	0.6985469
181	0x3cc3fc78	0.023924097
182	0xbe952553	-0.2913004
183	0xbe8a3ab5	-0.26997915
184	0xbd341724	-0.04396738
185	0x3db0ce8e	0.08633147
186	0xbf1b1d90	-0.60591984
187	0x3f3e93cb	0.74444264
188	0xbd8744c8	-0.06604916
189	0xbe4e90a6	-0.20172366
190	0x3d1a5352	0.037677117
191	0x3e991bd4	0.29904044
192	0xbdf8171f	-0.12113785
193	0xbec02b9f	-0.3753328
194	0x3db25bd6	0.087089226
195	0x3da5b020	0.08090234
196	0xbe9c3574	-0.30509531
197	0xbe349144	-0.1763354
198	0xbdcf5e2a	-0.10125382
199	0xbed250d0	-0.4107728
200	0x3e9ccd72	0.30625492
201	0x3e86e8f5	0.26349607
202	0xbd8e5e78	-0.06951612
203	0x3f1ddfe4	0.61669755
204	0x3e2e1813	0.17001371
205	0xbeb7da8c	-0.35908926
206	0x3e00f8ab	0.1259486
207	0x3eb20f56	0.34777325
208	0x3e351719	0.17684592
209	0x3d13edb4	0.036115363
210	0x3ea22f56	0.3167674
211	0x3f8aeecb	1.0854124
212	0xbe141c9c	-0.14464039
213	0x3e158e11	0.14604975
214	0xbe7a9ebf	-0.2447462
215	0x3f01f889	0.5076986
216	0xbbac3edc	-0.005256517
217	0xbdb7ba6f	-0.08971106
218	0x3d854306	0.06506924
219	0x3ea17608	0.31535363
220	0xbe557515	-0.20845445
221	0x3ec04c96	0.3755843
222	0xbeab44e9	-0.33451012
223	0x3e21b3af	0.157912
224	0xbe2dc0c7	-0.1696807
225	0x3d2b8e13	0.04188354
226	0x3d11b46d	0.035572458
227	0x3d56c541	0.05243421
228	0xbb1da5d5	-0.0024055142
229	0xbf13c301	-0.5771943
230	0x3f6a4604	0.91513085
231	0x3c5f26f7	0.01362013
232	0xbda5ecc9	-0.08101804
233	0x3de3f439	0.11130566
234	0x3e1f87ff	0.15579222
235	0xbc426243	-0.011864248
236	0x3db107c5	0.0864406
237	0xbe84abdf	-0.25912377
238	0xbcc4e6fb	-0.024035921
239	0x3e93059c	0.28715217
240	0x3d98d6c7	0.074628405
241	0x3d20c9c3	0.039254915
242	0xbf38cfc4	-0.72192025
243	0xbe314a46	-0.1731349
244	0xbe6eb8ce	-0.23312685
245	0xbf3f5ca7	-0.7475075
246	0x3e831757	0.25603744
247	0x3f748d16	0.9552778
248	0xbe86832e	-0.26271957
249	0x3efa72e6	0.48915786
250	0xbe022177	-0.12708078
251	0x3e2b822f	0.1674888
252	0xbd970f31	-0.073759444
253	0xbe592d3f	-0.21208666
254	0xbe11b4a1	-0.1422906
255	0xbe902219	-0.28151014

bias f4 [102]
0	0x3ecb4da1	0.39707664
1	0xbf2d60a1	-0.6772557
2	0xbecaf234	-0.3963791
3	0xbdd80ec7	-0.105496936
4	0xbe27f1e4	-0.16400868
5	0xbf52a276	-0.82279146
6	0xbf6ee70c	-0.933213
7	0xbe4648e9	-0.1936375
8	0xbea4dd85	-0.32200256
9	0xbe800341	-0.25002483
10	0xbd97e5cd	-0.07416878
11	0xbe733e1e	-0.23754165
12	0xbe685aa0	-0.2269082
13	0xbebb5d86	-0.3659479
14	0xbe3918d0	-0.18075871
15	0xbe8ab663	-0.27092275
16	0xbee922a8	-0.45534253
17	0xbe93670f	-0.28789565
18	0xbeabb353	-0.3353525
19	0xbe4e040a	-0.20118728
20	0xbcba0918	-0.022709414
21	0x3e23e3db	0.16004889
22	0x3cac6227	0.021042896
23	0x3dab2b7f	0.083579056
24	0xbf1e0a90	-0.6173487
25	0x3e239928	0.15976393
26	0xbdc43a6e	-0.09581457
27	0x3ce72408	0.028215423
28	0xbf952a18	-1.1653471
29	0xbed2eb71	-0.41195253
30	0xbd664162	-0.056214698
31	0xbe0ea6ff	-0.13930891
32	0xbf17d699	-0.59311825
33	0x3e7d5823	0.24740653
34	0xbdf81475	-0.12113277
35	0xbcb14dfb	-0.02164363
36	0x3c8d7080	0.017265558
37	0xbeb0016d	-0.34376088
38	0x3e27c588	0.16383946
39	0xbd4a5401	-0.04939652
40	0x3bb784bf	0.0056005414
41	0x3e1c9308	0.15290463
42	0x3dfe8c1e	0.12429069
43	0xbe2e8804	-0.17044073
44	0xbcbfb5c0	-0.023402095
45	0xbc22d1c1	-0.009937705
46	0xbe233ace	-0.15940401
47	0x3e017c44	0.1264506
48	0x3e65c37d	0.22437854
49	0xbdbe45f1	-0.09290684
50	0x3dfc755e	0.123270735
51	0x3e2ddd14	0.16978866
52	0x3e6f2c41	0.23356725
53	0xbc8486d3	-0.01617757
54	0x3cc45991	0.02396849
55	0xbde4b1fe	-0.11166762
56	0xbf1ddd22	-0.61665547
57	0x3d89eed0	0.06735003
58	0x3e06ddff	0.13170622
59	0xbc5ff061	-0.013668151
60	0x3d9e7bf0	0.07738483
61	0xbdf7d457	-0.121010475
62	0xbda227b2	-0.079177275
63	0xbe151299	-0.14557876
64	0xbeb2c6e5	-0.3491737
65	0xbdeb0779	-0.11476035
66	0x3e95fd92	0.2929502
67	0xbde1e55b	-0.11030074
68	0x3c891328	0.016732767
69	0xbdb9c783	-0.09071257
70	0x3d17d6e3	0.037070166
71	0xbe4c4011	-0.19946314
72	0xbc80654a	-0.015673298
73	0xbd61b938	-0.05510828
74	0x3e1c4934	0.152623
75	0xbc6cf071	-0.014461623
76	0xbe86f4eb	-0.26358733
77	0xbae05f20	-0.0017118193
78	0x3dc40680	0.09571552
79	0xbe482863	-0.19546656
80	0x3e0644ed	0.1311223
81	0xbea388cc	-0.31940305
82	0xbef7381f	-0.48285004
83	0x3d8298ec	0.06376824
84	0xbda56f31	-0.08077849
85	0x3e2bc90d	0.16775914
86	0x3c65d6aa	0.014028231
87	0xbee03fc1	-0.4379864
88	0xbe046d96	-0.12932429
89	0xbed851a1	-0.42249778
90	0x3e770e9a	0.24126664
91	0x3cd83d4d	0.026396418
92	0x3e2ba371	0.16761567
93	0x3d37b930	0.044854343
94	0xbd3103db	-0.043216567
95	0xbe10ba43	-0.14133553
96	0xbe2bd199	-0.16779174
97	0xbe123835	-0.14279254
98	0xbdf23f18	-0.118284404
99	0xbe66f781	-0.22555353
100	0xbe0518a2	-0.12997678
101	0xbd9bde13	-0.07610717
