nn/models/news_emb_all.pt (torch, 7339 bytes, 1 tensors)

weight f4 [102, 16]
1.3822286 -4.8998785 1.1419172 0.5364303 0.91273695 2.0440826 -0.24689263 -1.1038635
-1.7151254 0.31060454 -3.4039185 4.161052 2.036804 -1.8493965 -1.0150082 -1.1095183
-3.1022203 -2.0645075 4.39782 -4.154689 2.7198856 2.6609108 -2.104124 -0.5366527
-0.5744433 0.6868175 -0.80384034 0.26684466 3.60471 -1.4259562 2.9327877 2.303066
6.13185 -5.9573507 4.752099 0.50285643 6.133837 -2.1699767 -3.0608377 -1.345812
-3.7913544 -4.737747 -0.8129973 0.3883711 2.4497912 3.8459895 -0.13198708 -2.819668
-1.7111357 -2.1031184 2.8828375 0.82066905 1.7891389 -2.0127447 0.9973383 -0.7695549
-1.7627568 -3.634141 -2.2304318 -2.4279423 -1.1871616 4.037386 0.6082602 1.7818425
-0.39580998 -3.7943292 2.3998892 -1.538198 1.9744668 1.8390914 -1.5942825 -3.6618059
0.20836523 -0.39918366 2.3087578 -0.093924865 4.9444013 1.8497125 2.1649907 -1.4230032
0.10289481 -4.5047784 2.7884307 -1.3822837 1.9073952 1.0506431 -2.615921 -3.1976166
-0.66044426 -1.0017337 2.4205458 -2.7629433 5.1334095 3.9524777 2.4587214 -0.88903004
-1.560759 0.47391307 0.34650874 1.6579249 -0.026489975 0.024818929 -1.4362686 -0.5535093
-0.9970575 0.6965614 -0.89106447 -1.0594548 0.33862147 -1.021834 -0.030466778 -0.0525003
0.05865724 -3.402564 2.0331597 -2.3833232 2.1652257 0.6702829 -0.90618795 -2.5209856
0.40365437 0.16767807 1.4305276 1.4626195 2.7285028 0.32558537 1.3957161 -0.6554742
0.63512725 -3.959967 3.2648437 -1.5648246 -1.7975187 -5.945185 3.0719883 -1.0618168
-1.432059 1.126974 0.4101173 -2.966747 0.7404012 2.862965 0.8170638 5.1461854
-1.167699 -4.321638 3.2738786 -1.0112447 1.6314588 1.3507619 -2.3379161 -3.7099943
0.058284942 -0.54278606 2.0723677 -0.8928808 5.335037 2.669579 2.6649332 -0.7747665
1.7622209 -2.3055573 1.7185808 -0.8372001 0.0031218554 -0.92973983 -1.3458924 -0.62167263
-0.47487378 0.7027916 -1.3847747 1.2308694 1.1864401 0.40907064 0.6236909 3.2385216
-2.1473444 -2.808071 -1.8210987 -3.3635356 -3.8765962 -1.959482 -2.3187509 0.6031456
-2.6066334 -0.050467912 0.8115172 1.9283556 -2.0786107 -1.3697412 0.59060377 1.6226
-2.2125013 0.5851539 1.6099353 0.76045924 1.900938 -0.4145309 -2.236144 1.0146743
2.7828565 -2.5062838 -0.78806007 -0.8820272 -0.2725553 2.109267 -1.9634922 1.452239
1.6123117 1.7581064 2.303221 -2.2302625 0.32826278 -1.2396947 1.465443 1.8444589
-3.4291885 -2.2160623 0.08117526 0.59102184 -1.2050388 2.3658357 -0.07538563 1.4440511
-3.0523639 -2.110962 4.522519 -4.102711 2.769761 2.5420094 -2.3506346 -0.61429346
-0.54135877 0.57471967 -0.73393786 0.22174153 3.7165053 -1.4335568 2.9889085 2.2306669
0.67849743 -4.972952 1.1575909 -1.0443 -2.1344962 -0.41342428 -1.997335 -3.0928686
-1.3501767 -0.005377224 -1.7293937 -0.6587391 4.2483597 -1.9565867 -2.5379877 1.02249
00000000: deec b03f cecb 9cc0 582a 923f 7f53 093f
00000010: 21a9 693f 40d2 0240 6cd1 7cbe 664b 8dbf
00000020: 3b89 dbbf 8f07 9f3e cdd9 59c0 5727 8540
00000030: ff5a 0240 06b9 ecbf caeb 81bf b204 8ebf
00000040: c78a 46c0 e420 04c0 f1ba 8c40 36f3 84c0
00000050: 9b12 2e40 5d4c 2a40 f8a9 06c0 1262 09bf
00000060: b70e 13bf 46d3 2f3f 7bc8 4dbf dd9f 883e
00000070: 92b3 6640 bc85 b6bf cbb2 3b40 6f65 1340
00000080: 1d38 c440 9ea2 bec0 3211 9840 33bb 003f
00000090: 6548 c440 e6e0 0ac0 c4e4 43c0 9143 acbf
000000a0: 8da5 72c0 a09b 97c0 9720 50bf 94d8 c63e
000000b0: 61c9 1c40 b124 7640 9f27 07be 7175 34c0
000000c0: 7f06 dbbf 7e99 06c0 6980 3840 5e17 523f
000000d0: 8102 e53f cfd0 00c0 9051 7f3f 8d01 45bf
000000e0: 04a2 e1bf c495 68c0 65bf 0ec0 6863 1bc0
000000f0: e9f4 97bf 4432 8140 f1b6 1b3f 6a13 e43f
00000100: 9ba7 cabe 4ad6 72c0 c997 1940 ace3 c4bf
00000110: 54bb fc3f 5967 eb3f 7311 ccbf 075b 6ac0
00000120: b25d 553e cd61 ccbe b0c2 1340 ae5b c0bd
00000130: 8938 9e40 61c3 ec3f 358f 0a40 f824 b6bf
00000140: 84ba d23d 2527 90c0 a675 3240 acee b0bf
00000150: 8725 f43f 797b 863f 406b 27c0 c0a5 4cc0
00000160: e012 29bf cf38 80bf 39ea 1a40 10d4 30c0
00000170: e444 a440 65f5 7c40 b15b 1d40 7997 63bf
00000180: f3c6 c7bf bca4 f23e 9869 b13e e236 d43f
00000190: 8101 d9bc 1151 cb3c a6d7 b7bf c9b2 0dbf
000001a0: 293f 7fbf d951 323f cd1c 64bf 379c 87bf
000001b0: cb5f ad3e 75cb 82bf 7795 f9bc 8e0a 57bd
000001c0: 9342 703d 9cc3 59c0 4a1f 0240 5e88 18c0
000001d0: 0f93 0a40 a997 2b3f effb 67bf d457 21c0
000001e0: c9ab ce3e cdb3 2b3e 871b b73f 1e37 bb3f
000001f0: ca9f 2e40 20b3 a63e d3a6 b23f 28cd 27bf
00000200: b397 223f 1970 7dc0 33f3 5040 2c4c c8bf
00000210: 1815 e6bf f53e bec0 759b 4440 9de9 87bf
00000220: b64d b7bf af40 903f e5fa d13e 2fdf 3dc0
00000230: ef8a 3d3f d23a 3740 182b 513f 8dad a440
00000240: 2977 95bf dc4a 8ac0 3a87 5140 7770 81bf
00000250: a4d3 d03f c4e5 ac3f 6ba0 15c0 8c70 6dc0
00000260: 31bc 6e3d 07f4 0abf aca1 0440 d693 64bf
00000270: a0b8 aa40 62da 2a40 448e 2a40 1957 46bf
00000280: 7490 e13f 408e 13c0 75fa db3f bf52 56bf
00000290: 0b98 4c3b 6e03 6ebf 3446 acbf f025 1fbf
000002a0: a822 f3be 26ea 333f 4c40 b1bf 218d 9d3f
000002b0: 45dd 973f b571 d13e 35aa 1f3f f043 4f40
000002c0: 176e 09c0 6fb7 33c0 c319 e9bf 2b44 57c0
000002d0: 271a 78c0 4ed0 fabf 6a66 14c0 c067 1a3f
000002e0: 15d3 26c0 71b7 4ebd 97bf 4f3f 5bd4 f63f
000002f0: f507 05c0 ae53 afbf cf31 173f 5bb1 cf3f
00000300: 9f99 0dc0 a5cc 153f 5c12 ce3f 75ad 423f
00000310: f051 f33f 653d d4be fc1c 0fc0 d9e0 813f
00000320: 521a 3240 f466 20c0 4ebe 49bf 89cc 61bf
00000330: 5e8c 8bbe 3bfe 0640 b653 fbbf f8e2 b93f
00000340: 3b60 ce3f a109 e13f f967 1340 9fbc 0ec0
00000350: 0f12 a83e 51ae 9ebf a393 bb3f 3b17 ec3f
00000360: d377 5bc0 f7d3 0dc0 373f a63d 354d 173f
00000370: b63e 9abf da69 1740 c863 9abd abd6 b83f
00000380: ee59 43c0 001a 07c0 7ab8 9040 6949 83c0
00000390: c443 3140 48b0 2240 cc70 16c0 5642 1dbf
000003a0: 7d96 0abf d420 133f 5ae3 3bbf 3610 633e
000003b0: 39db 6d40 ca7e b7bf 474a 3f40 3fc3 0e40
000003c0: 02b2 2d3f 6c22 9fc0 f02b 943f 9fab 85bf
000003d0: 969b 08c0 59ac d3be aca8 ffbf 8ff1 45c0
000003e0: 97d2 acbf 6d33 b0bb c65c ddbf 20a3 28bf
000003f0: 90f2 8740 6f71 fabf 646e 22c0 f4e0 823f
