nn/models/news_emb_low.pt (torch, 2667 bytes, 1 tensors)

weight f4 [29, 16]
00000000: 6cce 2c3f fbab ff3f d376 cdbe e98d 9c3e
00000010: 477a bfbf 299b b43f 988b 6abf 3cc8 3e40
00000020: 1c1d 52be 8d7f 63bf ec1c cfbf db58 3bbf
00000030: 0d29 1c40 4449 653f a7a9 1cc0 2f64 07c0
00000040: bf7a afbf a9aa 87bf 18e6 f23f cac7 b93d
00000050: ea38 9bbf 7330 eb3e 51ac 823f 3f9f 9bbf
00000060: e704 a73f 18b1 38bf e935 dbbe a77c 72bc
00000070: 8ac5 14bd 6ce9 523f 4591 fc3f 5789 bf3e
00000080: ecbe c4be 5373 1fbf ddd1 5540 849f 803e
00000090: cad4 0fbf 2f65 c0bf d91e 3abf 64d3 913d
000000a0: 375e 40c0 84e8 7f3e 3188 1fc0 6c8b f23f
000000b0: e12f d1bf 92e5 1b40 70dd 41be 019d fc3f
000000c0: 0334 d7bf 3f0e f8bd 3b9a 023f 4ebe 693f
000000d0: 6c5d a63f 1de3 ab3f 9dfd 39c0 875e 863d
000000e0: 54bf c6bf 7a80 3a3e 9be0 8abe 178a b33d
000000f0: f724 283f 38b1 1340 a4f2 1fbf 3202 603f
00000100: b996 0940 296d 903f 5510 12bd ab16 033e
00000110: c60b 32bf 3d37 e3be e8d4 03c0 ae95 2d3f
00000120: 6560 01c0 e813 f7be 025a 8e3f 0c0a 12c0
00000130: b9b5 c8bf 5ad8 9cbf dee2 913f 082e cc3d
00000140: aded 57bf d9b5 4abf cdfe 3040 5a13 a0bf
00000150: 2031 8c3f 54e9 913f 419c edbf f014 f23e
00000160: 0979 983f c3f1 703f a7e6 b93e 950c 43be
00000170: 95c0 22be 61fe ecbe c82e 8cbc 0c8a 3fbf
00000180: 8f77 45bf 5d37 5e3f fd28 93bf ccdf 583f
00000190: a752 5340 5251 9a3f 5034 623f 1345 5a3d
000001a0: d051 1bbf 42c7 4ebf 4d1b 40c0 fe69 de3e
000001b0: ef79 a3bf 7870 fcbc 57b7 c03f 6ce1 cd3f
000001c0: 7512 d03e df4e 8fbf 7beb 99bf 1ea1 ce3f
000001d0: d949 0840 dc65 0cc0 6918 cebf a508 02c0
000001e0: c107 4d3e 99ba 383f 977b 81be c0d0 1d3e
000001f0: 9a0f c23e 9abf 1040 aa4b 01c0 ed55 05c0
00000200: 84ab 62bf a369 a03e 15b4 1c40 7578 fc3f
00000210: 3974 b23e 0c61 ed3d 2db9 503f 23bf 4ac0
00000220: 62ca a73e fc4d 5a3f 6056 0140 d7c8 e93f
00000230: ccef 683d 2094 bd3f 4ee8 e6bf 07af c63f
00000240: ea8d 933f 356d 9abf fe7c 56bf a3f5 d0be
00000250: 8c75 9f3f 8aa4 843f f475 843d af3d 6a3e
00000260: c0be b73f d0e2 e3bf 554b 8d3f 2744 7abf
00000270: 677f ef3f f4c1 a73f 85ea 9f3f 90b7 5b3e
00000280: d189 adbe f921 7a40 9698 98be b020 b43f
00000290: de68 553f 84ad cbbe b5c1 82bf d946 89bf
000002a0: 71df 103f 77b1 9c3f 1a1b 20be 19f1 e9bf
000002b0: d54d dbbf 128e babf 9df1 f6bf b323 35bf
000002c0: d852 643e 519c b73d 8148 d23c 1907 6bbf
000002d0: e628 fe3e 57ef efbf 5c03 803f 97f3 d33e
000002e0: 5e12 5ec0 8c97 86be 8828 853f 63e9 0d40
000002f0: 42b8 6b3f 97bc b8be cc6b dd3e a8db f2bf
00000300: b831 c8be a58e bebf 722d 0cc0 e4de 04be
00000310: db88 563f afa0 4140 23c9 73bf 7c6d 86bf
00000320: 3f7c 54be c8dc 973f ebf1 423e fc1f c03f
00000330: 0d20 d4bf 1550 3abd 8eb8 98bf 3d4e cebf
00000340: d770 9dbe 3706 1bbe bda9 00c0 b375 60bf
00000350: 4c48 1e3e d6ff 62bf 7b92 43bf acb6 06c0
00000360: 14dc 1dbf 3218 d6bf c38f a03f 3b9d 81bd
00000370: 31f8 2ebf c403 843f c1f5 41c0 ab39 ac3f
00000380: 471a d4bf 426e 20bf 8c1e 64be 43e4 8f3f
00000390: 21e6 af3f c221 253f 6271 7e3f cbc0 0abf
000003a0: c750 e5bf 34b9 48bd 9ec4 ec3d 69b8 11c0
000003b0: a3a3 1c3d a381 723e 3611 653f 9f64 afbf
000003c0: 9dff 963f d1e8 a5be 38e1 f43e d596 2a40
000003d0: 2320 513f 7d3d 15bc 6f09 c33f b153 683f
000003e0: 0bd9 953f 588b 563f 7023 8c3f 7ce8 033f
000003f0: 54b1 81bf 4317 973e 78a5 c7bf c53f c0be
0.67502475 1.9974359 -0.40129718 0.3057702 -1.4959191 1.4109851 -0.91619253 2.9809713
-0.20518917 -0.888665 -1.6180701 -0.7318246 2.4400055 0.8956492 -2.4478548 -2.1154897
-1.3709334 -1.0598956 1.8976469 0.0907131 -1.2126744 0.459354 1.0208837 -1.2157973
1.3048371 -0.72145224 -0.42814568 -0.014800227 -0.0363212 0.82387424 1.9731833 0.3740947
-0.38426912 -0.62285346 3.340934 0.251217 -0.56184065 -1.5030879 -0.7270332 0.07120398
-3.0057504 0.24991041 -2.4926875 1.8948798 -1.6342736 2.4358869 -0.18932128 1.9735414
-1.6812748 -0.12112092 0.51016587 0.91306007 1.299726 1.3428684 -2.9061043 0.065609984
-1.5527139 0.18213072 -0.27124485 0.08766573 0.65681404 2.3076916 -0.62479615 0.8750335
2.1498244 1.1283313 -0.035660107 0.12801616 -0.69549215 -0.4437808 -2.0598698 0.6780652
-2.0215085 -0.48257375 1.1121218 -2.2818632 -1.5680457 -1.2253525 1.1397359 0.09969717
-0.8434704 -0.7918373 2.7655518 -1.2505906 1.0952492 1.1399331 -1.856331 0.472816
1.1911937 0.941189 0.36308786 -0.19047768 -0.15893777 -0.46287826 -0.01711215 -0.7482002
-0.77135557 0.8680323 -1.1496884 0.84716487 3.3019197 1.2056067 0.8836107 0.05328853
-0.6067171 -0.80772793 -3.0016663 0.4344024 -1.2771586 -0.030815348 1.5055951 1.6084418
0.40639082 -1.1195945 -1.2024988 1.6142919 2.1295073 -2.193717 -1.6101199 -2.0317776
0.20022489 0.72159725 -0.25289604 0.15411663 0.37902528 2.2616944 -2.0202432 -2.0833695
-0.8854296 0.31330594 2.4484913 1.972426 0.34854296 0.11590776 0.81532556 -3.167916
0.32771593 0.85275245 2.020897 1.8264416 0.056869313 1.4810829 -1.8039644 1.5522164
1.1527684 -1.2064577 -0.8378447 -0.40812406 1.2457747 1.0362713 0.0646781 0.22875093
1.4355087 -1.7803593 1.1038615 -0.9776024 1.8710755 1.3106065 1.2493445 0.21456742
-0.33894208 3.9083235 -0.29803914 1.4072475 0.8336314 -0.3978082 -1.0215365 -1.0724746
0.56590945 1.2241658 -0.15635338 -1.8276702 -1.7133127 -1.4574606 -1.9292485 -0.707576
0.22297227 0.08965362 0.025669338 -0.91807705 0.49640578 -1.8744916 1.0001025 0.41396782
-3.469871 -0.26287496 1.0402994 2.2173698 0.9207803 -0.36081383 0.43246305 -1.8973284
-0.39100432 -1.4887282 -2.1902738 -0.12975651 0.83802575 3.0254323 -0.95228785 -1.0502162
-0.20750521 1.1864252 0.19037597 1.5009761 -1.6572281 -0.04548653 -1.1931322 -1.6117626
-0.30750152 -0.1513909 -2.01036 -0.87679595 0.15457267 -0.88671625 -0.76395386 -2.1048994
-0.6166394 -1.6726134 1.2543873 -0.063288175 -0.6834746 1.0313649 -3.0306246 1.3455099
-1.6570519 -0.6266824 -0.22277278 1.1241535 1.3742105 0.64504635 0.9939176 -0.5420043
-1.7915276 -0.04900475 0.11560939 -2.2768805 0.038241994 0.23682265 0.89479387 -1.3702582
1.1796757 -0.32404187 0.47828078 2.665456 0.8168966 -0.009108898 1.5237254 0.907527
1.1706861 0.8380637 1.0948315 0.5152662 -1.0132241 0.29509935 -1.5597372 -0.37548652
